[0, 1, 2, 3, 4, 5, 6, 7, 8, 9, 10, 11, 12, 13, 14, 15, 16, 17, 18, 19, 20, 21, 22, 23, 24]
__________________________________________________________________________________________________
Layer (type)                    Output Shape         Param #     Connected to                     
==================================================================================================
input_1 (InputLayer)            (None, 25, 54)       0                                            
__________________________________________________________________________________________________
gru_1 (GRU)                     (None, 25, 1024)     3314688     input_1[0][0]                    
__________________________________________________________________________________________________
lambda_1 (Lambda)               (None, 1024)         0           gru_1[0][0]                      
__________________________________________________________________________________________________
lambda_27 (Lambda)              (None, 1024)         0           gru_1[0][0]                      
__________________________________________________________________________________________________
lambda_53 (Lambda)              (None, 1024)         0           gru_1[0][0]                      
__________________________________________________________________________________________________
lambda_79 (Lambda)              (None, 1024)         0           gru_1[0][0]                      
__________________________________________________________________________________________________
lambda_105 (Lambda)             (None, 1024)         0           gru_1[0][0]                      
__________________________________________________________________________________________________
lambda_131 (Lambda)             (None, 1024)         0           gru_1[0][0]                      
__________________________________________________________________________________________________
lambda_157 (Lambda)             (None, 1024)         0           gru_1[0][0]                      
__________________________________________________________________________________________________
lambda_183 (Lambda)             (None, 1024)         0           gru_1[0][0]                      
__________________________________________________________________________________________________
lambda_209 (Lambda)             (None, 1024)         0           gru_1[0][0]                      
__________________________________________________________________________________________________
lambda_235 (Lambda)             (None, 1024)         0           gru_1[0][0]                      
__________________________________________________________________________________________________
lambda_261 (Lambda)             (None, 1024)         0           gru_1[0][0]                      
__________________________________________________________________________________________________
lambda_287 (Lambda)             (None, 1024)         0           gru_1[0][0]                      
__________________________________________________________________________________________________
lambda_313 (Lambda)             (None, 1024)         0           gru_1[0][0]                      
__________________________________________________________________________________________________
lambda_339 (Lambda)             (None, 1024)         0           gru_1[0][0]                      
__________________________________________________________________________________________________
lambda_365 (Lambda)             (None, 1024)         0           gru_1[0][0]                      
__________________________________________________________________________________________________
lambda_391 (Lambda)             (None, 1024)         0           gru_1[0][0]                      
__________________________________________________________________________________________________
lambda_417 (Lambda)             (None, 1024)         0           gru_1[0][0]                      
__________________________________________________________________________________________________
lambda_443 (Lambda)             (None, 1024)         0           gru_1[0][0]                      
__________________________________________________________________________________________________
lambda_469 (Lambda)             (None, 1024)         0           gru_1[0][0]                      
__________________________________________________________________________________________________
lambda_495 (Lambda)             (None, 1024)         0           gru_1[0][0]                      
__________________________________________________________________________________________________
lambda_521 (Lambda)             (None, 1024)         0           gru_1[0][0]                      
__________________________________________________________________________________________________
lambda_547 (Lambda)             (None, 1024)         0           gru_1[0][0]                      
__________________________________________________________________________________________________
lambda_573 (Lambda)             (None, 1024)         0           gru_1[0][0]                      
__________________________________________________________________________________________________
lambda_599 (Lambda)             (None, 1024)         0           gru_1[0][0]                      
__________________________________________________________________________________________________
lambda_625 (Lambda)             (None, 1024)         0           gru_1[0][0]                      
__________________________________________________________________________________________________
repeat_vector_1 (RepeatVector)  (None, 25, 1024)     0           lambda_1[0][0]                   
                                                                 lambda_27[0][0]                  
                                                                 lambda_53[0][0]                  
                                                                 lambda_79[0][0]                  
                                                                 lambda_105[0][0]                 
…
                                                                 repeat_vector_1[20][0]           
                                                                 repeat_vector_1[21][0]           
                                                                 repeat_vector_1[22][0]           
                                                                 repeat_vector_1[23][0]           
                                                                 repeat_vector_1[24][0]           
__________________________________________________________________________________________________
lambda_2 (Lambda)               (None, 54)           0           gru_2[0][0]                      
__________________________________________________________________________________________________
lambda_3 (Lambda)               (None, 54)           0           gru_2[0][0]                      
__________________________________________________________________________________________________
lambda_4 (Lambda)               (None, 54)           0           gru_2[0][0]                      
__________________________________________________________________________________________________
lambda_5 (Lambda)               (None, 54)           0           gru_2[0][0]                      
__________________________________________________________________________________________________
lambda_6 (Lambda)               (None, 54)           0           gru_2[0][0]                      
__________________________________________________________________________________________________
lambda_7 (Lambda)               (None, 54)           0           gru_2[0][0]                      
__________________________________________________________________________________________________
lambda_8 (Lambda)               (None, 54)           0           gru_2[0][0]                      
__________________________________________________________________________________________________
lambda_9 (Lambda)               (None, 54)           0           gru_2[0][0]                      
__________________________________________________________________________________________________
lambda_10 (Lambda)              (None, 54)           0           gru_2[0][0]                      
__________________________________________________________________________________________________
lambda_11 (Lambda)              (None, 54)           0           gru_2[0][0]                      
__________________________________________________________________________________________________
lambda_12 (Lambda)              (None, 54)           0           gru_2[0][0]                      
__________________________________________________________________________________________________
lambda_13 (Lambda)              (None, 54)           0           gru_2[0][0]                      
__________________________________________________________________________________________________
lambda_14 (Lambda)              (None, 54)           0           gru_2[0][0]                      
__________________________________________________________________________________________________
lambda_15 (Lambda)              (None, 54)           0           gru_2[0][0]                      
__________________________________________________________________________________________________
lambda_16 (Lambda)              (None, 54)           0           gru_2[0][0]                      
__________________________________________________________________________________________________
lambda_17 (Lambda)              (None, 54)           0           gru_2[0][0]                      
__________________________________________________________________________________________________
lambda_18 (Lambda)              (None, 54)           0           gru_2[0][0]                      
__________________________________________________________________________________________________
lambda_19 (Lambda)              (None, 54)           0           gru_2[0][0]                      
__________________________________________________________________________________________________
lambda_20 (Lambda)              (None, 54)           0           gru_2[0][0]                      
__________________________________________________________________________________________________
lambda_21 (Lambda)              (None, 54)           0           gru_2[0][0]                      
__________________________________________________________________________________________________
lambda_22 (Lambda)              (None, 54)           0           gru_2[0][0]                      
__________________________________________________________________________________________________
lambda_23 (Lambda)              (None, 54)           0           gru_2[0][0]                      
__________________________________________________________________________________________________
lambda_24 (Lambda)              (None, 54)           0           gru_2[0][0]                      
__________________________________________________________________________________________________
lambda_25 (Lambda)              (None, 54)           0           gru_2[0][0]                      
__________________________________________________________________________________________________
lambda_26 (Lambda)              (None, 54)           0           gru_2[0][0]                      
__________________________________________________________________________________________________
lambda_28 (Lambda)              (None, 54)           0           gru_2[1][0]                      
__________________________________________________________________________________________________
lambda_29 (Lambda)              (None, 54)           0           gru_2[1][0]                      
__________________________________________________________________________________________________
lambda_30 (Lambda)              (None, 54)           0           gru_2[1][0]                      
__________________________________________________________________________________________________
lambda_31 (Lambda)              (None, 54)           0           gru_2[1][0]                      
__________________________________________________________________________________________________
lambda_32 (Lambda)              (None, 54)           0           gru_2[1][0]                      
__________________________________________________________________________________________________
lambda_33 (Lambda)              (None, 54)           0           gru_2[1][0]                      
__________________________________________________________________________________________________
lambda_34 (Lambda)              (None, 54)           0           gru_2[1][0]                      
__________________________________________________________________________________________________
lambda_35 (Lambda)              (None, 54)           0           gru_2[1][0]                      
__________________________________________________________________________________________________
lambda_36 (Lambda)              (None, 54)           0           gru_2[1][0]                      
__________________________________________________________________________________________________
lambda_37 (Lambda)              (None, 54)           0           gru_2[1][0]                      
__________________________________________________________________________________________________
lambda_38 (Lambda)              (None, 54)           0           gru_2[1][0]                      
__________________________________________________________________________________________________
lambda_39 (Lambda)              (None, 54)           0           gru_2[1][0]                      
__________________________________________________________________________________________________
lambda_40 (Lambda)              (None, 54)           0           gru_2[1][0]                      
__________________________________________________________________________________________________
lambda_41 (Lambda)              (None, 54)           0           gru_2[1][0]                      
__________________________________________________________________________________________________
lambda_42 (Lambda)              (None, 54)           0           gru_2[1][0]                      
__________________________________________________________________________________________________
lambda_43 (Lambda)              (None, 54)           0           gru_2[1][0]                      
__________________________________________________________________________________________________
lambda_44 (Lambda)              (None, 54)           0           gru_2[1][0]                      
__________________________________________________________________________________________________
lambda_45 (Lambda)              (None, 54)           0           gru_2[1][0]                      
__________________________________________________________________________________________________
lambda_46 (Lambda)              (None, 54)           0           gru_2[1][0]                      
__________________________________________________________________________________________________
lambda_47 (Lambda)              (None, 54)           0           gru_2[1][0]                      
__________________________________________________________________________________________________
lambda_48 (Lambda)              (None, 54)           0           gru_2[1][0]                      
__________________________________________________________________________________________________
lambda_49 (Lambda)              (None, 54)           0           gru_2[1][0]                      
__________________________________________________________________________________________________
lambda_50 (Lambda)              (None, 54)           0           gru_2[1][0]                      
__________________________________________________________________________________________________
lambda_51 (Lambda)              (None, 54)           0           gru_2[1][0]                      
__________________________________________________________________________________________________
lambda_52 (Lambda)              (None, 54)           0           gru_2[1][0]                      
__________________________________________________________________________________________________
lambda_54 (Lambda)              (None, 54)           0           gru_2[2][0]                      
__________________________________________________________________________________________________
lambda_55 (Lambda)              (None, 54)           0           gru_2[2][0]                      
__________________________________________________________________________________________________
lambda_56 (Lambda)              (None, 54)           0           gru_2[2][0]                      
__________________________________________________________________________________________________
lambda_57 (Lambda)              (None, 54)           0           gru_2[2][0]                      
__________________________________________________________________________________________________
lambda_58 (Lambda)              (None, 54)           0           gru_2[2][0]                      
__________________________________________________________________________________________________
lambda_59 (Lambda)              (None, 54)           0           gru_2[2][0]                      
__________________________________________________________________________________________________
lambda_60 (Lambda)              (None, 54)           0           gru_2[2][0]                      
__________________________________________________________________________________________________
lambda_61 (Lambda)              (None, 54)           0           gru_2[2][0]                      
__________________________________________________________________________________________________
lambda_62 (Lambda)              (None, 54)           0           gru_2[2][0]                      
__________________________________________________________________________________________________
lambda_63 (Lambda)              (None, 54)           0           gru_2[2][0]                      
__________________________________________________________________________________________________
lambda_64 (Lambda)              (None, 54)           0           gru_2[2][0]                      
__________________________________________________________________________________________________
lambda_65 (Lambda)              (None, 54)           0           gru_2[2][0]                      
__________________________________________________________________________________________________
lambda_66 (Lambda)              (None, 54)           0           gru_2[2][0]                      
__________________________________________________________________________________________________
lambda_67 (Lambda)              (None, 54)           0           gru_2[2][0]                      
__________________________________________________________________________________________________
lambda_68 (Lambda)              (None, 54)           0           gru_2[2][0]                      
__________________________________________________________________________________________________
lambda_69 (Lambda)              (None, 54)           0           gru_2[2][0]                      
__________________________________________________________________________________________________
lambda_70 (Lambda)              (None, 54)           0           gru_2[2][0]                      
__________________________________________________________________________________________________
lambda_71 (Lambda)              (None, 54)           0           gru_2[2][0]                      
__________________________________________________________________________________________________
lambda_72 (Lambda)              (None, 54)           0           gru_2[2][0]                      
__________________________________________________________________________________________________
lambda_73 (Lambda)              (None, 54)           0           gru_2[2][0]                      
__________________________________________________________________________________________________
lambda_74 (Lambda)              (None, 54)           0           gru_2[2][0]                      
__________________________________________________________________________________________________
lambda_75 (Lambda)              (None, 54)           0           gru_2[2][0]                      
__________________________________________________________________________________________________
lambda_76 (Lambda)              (None, 54)           0           gru_2[2][0]                      
__________________________________________________________________________________________________
lambda_77 (Lambda)              (None, 54)           0           gru_2[2][0]                      
__________________________________________________________________________________________________
lambda_78 (Lambda)              (None, 54)           0           gru_2[2][0]                      
__________________________________________________________________________________________________
lambda_80 (Lambda)              (None, 54)           0           gru_2[3][0]                      
__________________________________________________________________________________________________
lambda_81 (Lambda)              (None, 54)           0           gru_2[3][0]                      
__________________________________________________________________________________________________
lambda_82 (Lambda)              (None, 54)           0           gru_2[3][0]                      
__________________________________________________________________________________________________
lambda_83 (Lambda)              (None, 54)           0           gru_2[3][0]                      
__________________________________________________________________________________________________
lambda_84 (Lambda)              (None, 54)           0           gru_2[3][0]                      
__________________________________________________________________________________________________
lambda_85 (Lambda)              (None, 54)           0           gru_2[3][0]                      
__________________________________________________________________________________________________
lambda_86 (Lambda)              (None, 54)           0           gru_2[3][0]                      
__________________________________________________________________________________________________
lambda_87 (Lambda)              (None, 54)           0           gru_2[3][0]                      
__________________________________________________________________________________________________
lambda_88 (Lambda)              (None, 54)           0           gru_2[3][0]                      
__________________________________________________________________________________________________
lambda_89 (Lambda)              (None, 54)           0           gru_2[3][0]                      
__________________________________________________________________________________________________
lambda_90 (Lambda)              (None, 54)           0           gru_2[3][0]                      
__________________________________________________________________________________________________
lambda_91 (Lambda)              (None, 54)           0           gru_2[3][0]                      
__________________________________________________________________________________________________
lambda_92 (Lambda)              (None, 54)           0           gru_2[3][0]                      
__________________________________________________________________________________________________
lambda_93 (Lambda)              (None, 54)           0           gru_2[3][0]                      
__________________________________________________________________________________________________
lambda_94 (Lambda)              (None, 54)           0           gru_2[3][0]                      
__________________________________________________________________________________________________
lambda_95 (Lambda)              (None, 54)           0           gru_2[3][0]                      
__________________________________________________________________________________________________
lambda_96 (Lambda)              (None, 54)           0           gru_2[3][0]                      
__________________________________________________________________________________________________
lambda_97 (Lambda)              (None, 54)           0           gru_2[3][0]                      
__________________________________________________________________________________________________
lambda_98 (Lambda)              (None, 54)           0           gru_2[3][0]                      
__________________________________________________________________________________________________
lambda_99 (Lambda)              (None, 54)           0           gru_2[3][0]                      
__________________________________________________________________________________________________
lambda_100 (Lambda)             (None, 54)           0           gru_2[3][0]                      
__________________________________________________________________________________________________
lambda_101 (Lambda)             (None, 54)           0           gru_2[3][0]                      
__________________________________________________________________________________________________
lambda_102 (Lambda)             (None, 54)           0           gru_2[3][0]                      
__________________________________________________________________________________________________
lambda_103 (Lambda)             (None, 54)           0           gru_2[3][0]                      
__________________________________________________________________________________________________
lambda_104 (Lambda)             (None, 54)           0           gru_2[3][0]                      
__________________________________________________________________________________________________
lambda_106 (Lambda)             (None, 54)           0           gru_2[4][0]                      
__________________________________________________________________________________________________
lambda_107 (Lambda)             (None, 54)           0           gru_2[4][0]                      
__________________________________________________________________________________________________
lambda_108 (Lambda)             (None, 54)           0           gru_2[4][0]                      
__________________________________________________________________________________________________
lambda_109 (Lambda)             (None, 54)           0           gru_2[4][0]                      
__________________________________________________________________________________________________
lambda_110 (Lambda)             (None, 54)           0           gru_2[4][0]                      
__________________________________________________________________________________________________
lambda_111 (Lambda)             (None, 54)           0           gru_2[4][0]                      
__________________________________________________________________________________________________
lambda_112 (Lambda)             (None, 54)           0           gru_2[4][0]                      
__________________________________________________________________________________________________
lambda_113 (Lambda)             (None, 54)           0           gru_2[4][0]                      
__________________________________________________________________________________________________
lambda_114 (Lambda)             (None, 54)           0           gru_2[4][0]                      
__________________________________________________________________________________________________
lambda_115 (Lambda)             (None, 54)           0           gru_2[4][0]                      
__________________________________________________________________________________________________
lambda_116 (Lambda)             (None, 54)           0           gru_2[4][0]                      
__________________________________________________________________________________________________
lambda_117 (Lambda)             (None, 54)           0           gru_2[4][0]                      
__________________________________________________________________________________________________
lambda_118 (Lambda)             (None, 54)           0           gru_2[4][0]                      
__________________________________________________________________________________________________
lambda_119 (Lambda)             (None, 54)           0           gru_2[4][0]                      
__________________________________________________________________________________________________
lambda_120 (Lambda)             (None, 54)           0           gru_2[4][0]                      
__________________________________________________________________________________________________
lambda_121 (Lambda)             (None, 54)           0           gru_2[4][0]                      
__________________________________________________________________________________________________
lambda_122 (Lambda)             (None, 54)           0           gru_2[4][0]                      
__________________________________________________________________________________________________
lambda_123 (Lambda)             (None, 54)           0           gru_2[4][0]                      
__________________________________________________________________________________________________
lambda_124 (Lambda)             (None, 54)           0           gru_2[4][0]                      
__________________________________________________________________________________________________
lambda_125 (Lambda)             (None, 54)           0           gru_2[4][0]                      
__________________________________________________________________________________________________
lambda_126 (Lambda)             (None, 54)           0           gru_2[4][0]                      
__________________________________________________________________________________________________
lambda_127 (Lambda)             (None, 54)           0           gru_2[4][0]                      
__________________________________________________________________________________________________
lambda_128 (Lambda)             (None, 54)           0           gru_2[4][0]                      
__________________________________________________________________________________________________
lambda_129 (Lambda)             (None, 54)           0           gru_2[4][0]                      
__________________________________________________________________________________________________
lambda_130 (Lambda)             (None, 54)           0           gru_2[4][0]                      
__________________________________________________________________________________________________
lambda_132 (Lambda)             (None, 54)           0           gru_2[5][0]                      
__________________________________________________________________________________________________
lambda_133 (Lambda)             (None, 54)           0           gru_2[5][0]                      
__________________________________________________________________________________________________
lambda_134 (Lambda)             (None, 54)           0           gru_2[5][0]                      
__________________________________________________________________________________________________
lambda_135 (Lambda)             (None, 54)           0           gru_2[5][0]                      
__________________________________________________________________________________________________
lambda_136 (Lambda)             (None, 54)           0           gru_2[5][0]                      
__________________________________________________________________________________________________
lambda_137 (Lambda)             (None, 54)           0           gru_2[5][0]                      
__________________________________________________________________________________________________
lambda_138 (Lambda)             (None, 54)           0           gru_2[5][0]                      
__________________________________________________________________________________________________
lambda_139 (Lambda)             (None, 54)           0           gru_2[5][0]                      
__________________________________________________________________________________________________
lambda_140 (Lambda)             (None, 54)           0           gru_2[5][0]                      
__________________________________________________________________________________________________
lambda_141 (Lambda)             (None, 54)           0           gru_2[5][0]                      
__________________________________________________________________________________________________
lambda_142 (Lambda)             (None, 54)           0           gru_2[5][0]                      
__________________________________________________________________________________________________
lambda_143 (Lambda)             (None, 54)           0           gru_2[5][0]                      
__________________________________________________________________________________________________
lambda_144 (Lambda)             (None, 54)           0           gru_2[5][0]                      
__________________________________________________________________________________________________
lambda_145 (Lambda)             (None, 54)           0           gru_2[5][0]                      
__________________________________________________________________________________________________
lambda_146 (Lambda)             (None, 54)           0           gru_2[5][0]                      
__________________________________________________________________________________________________
lambda_147 (Lambda)             (None, 54)           0           gru_2[5][0]                      
__________________________________________________________________________________________________
lambda_148 (Lambda)             (None, 54)           0           gru_2[5][0]                      
__________________________________________________________________________________________________
lambda_149 (Lambda)             (None, 54)           0           gru_2[5][0]                      
__________________________________________________________________________________________________
lambda_150 (Lambda)             (None, 54)           0           gru_2[5][0]                      
__________________________________________________________________________________________________
lambda_151 (Lambda)             (None, 54)           0           gru_2[5][0]                      
__________________________________________________________________________________________________
lambda_152 (Lambda)             (None, 54)           0           gru_2[5][0]                      
__________________________________________________________________________________________________
lambda_153 (Lambda)             (None, 54)           0           gru_2[5][0]                      
__________________________________________________________________________________________________
lambda_154 (Lambda)             (None, 54)           0           gru_2[5][0]                      
__________________________________________________________________________________________________
lambda_155 (Lambda)             (None, 54)           0           gru_2[5][0]                      
__________________________________________________________________________________________________
lambda_156 (Lambda)             (None, 54)           0           gru_2[5][0]                      
__________________________________________________________________________________________________
lambda_158 (Lambda)             (None, 54)           0           gru_2[6][0]                      
__________________________________________________________________________________________________
lambda_159 (Lambda)             (None, 54)           0           gru_2[6][0]                      
__________________________________________________________________________________________________
lambda_160 (Lambda)             (None, 54)           0           gru_2[6][0]                      
__________________________________________________________________________________________________
lambda_161 (Lambda)             (None, 54)           0           gru_2[6][0]                      
__________________________________________________________________________________________________
lambda_162 (Lambda)             (None, 54)           0           gru_2[6][0]                      
__________________________________________________________________________________________________
lambda_163 (Lambda)             (None, 54)           0           gru_2[6][0]                      
__________________________________________________________________________________________________
lambda_164 (Lambda)             (None, 54)           0           gru_2[6][0]                      
__________________________________________________________________________________________________
lambda_165 (Lambda)             (None, 54)           0           gru_2[6][0]                      
__________________________________________________________________________________________________
lambda_166 (Lambda)             (None, 54)           0           gru_2[6][0]                      
__________________________________________________________________________________________________
lambda_167 (Lambda)             (None, 54)           0           gru_2[6][0]                      
__________________________________________________________________________________________________
lambda_168 (Lambda)             (None, 54)           0           gru_2[6][0]                      
__________________________________________________________________________________________________
lambda_169 (Lambda)             (None, 54)           0           gru_2[6][0]                      
__________________________________________________________________________________________________
lambda_170 (Lambda)             (None, 54)           0           gru_2[6][0]                      
__________________________________________________________________________________________________
lambda_171 (Lambda)             (None, 54)           0           gru_2[6][0]                      
__________________________________________________________________________________________________
lambda_172 (Lambda)             (None, 54)           0           gru_2[6][0]                      
__________________________________________________________________________________________________
lambda_173 (Lambda)             (None, 54)           0           gru_2[6][0]                      
__________________________________________________________________________________________________
lambda_174 (Lambda)             (None, 54)           0           gru_2[6][0]                      
__________________________________________________________________________________________________
lambda_175 (Lambda)             (None, 54)           0           gru_2[6][0]                      
__________________________________________________________________________________________________
lambda_176 (Lambda)             (None, 54)           0           gru_2[6][0]                      
__________________________________________________________________________________________________
lambda_177 (Lambda)             (None, 54)           0           gru_2[6][0]                      
__________________________________________________________________________________________________
lambda_178 (Lambda)             (None, 54)           0           gru_2[6][0]                      
__________________________________________________________________________________________________
lambda_179 (Lambda)             (None, 54)           0           gru_2[6][0]                      
__________________________________________________________________________________________________
lambda_180 (Lambda)             (None, 54)           0           gru_2[6][0]                      
__________________________________________________________________________________________________
lambda_181 (Lambda)             (None, 54)           0           gru_2[6][0]                      
__________________________________________________________________________________________________
lambda_182 (Lambda)             (None, 54)           0           gru_2[6][0]                      
__________________________________________________________________________________________________
lambda_184 (Lambda)             (None, 54)           0           gru_2[7][0]                      
__________________________________________________________________________________________________
lambda_185 (Lambda)             (None, 54)           0           gru_2[7][0]                      
__________________________________________________________________________________________________
lambda_186 (Lambda)             (None, 54)           0           gru_2[7][0]                      
__________________________________________________________________________________________________
lambda_187 (Lambda)             (None, 54)           0           gru_2[7][0]                      
__________________________________________________________________________________________________
lambda_188 (Lambda)             (None, 54)           0           gru_2[7][0]                      
__________________________________________________________________________________________________
lambda_189 (Lambda)             (None, 54)           0           gru_2[7][0]                      
__________________________________________________________________________________________________
lambda_190 (Lambda)             (None, 54)           0           gru_2[7][0]                      
__________________________________________________________________________________________________
lambda_191 (Lambda)             (None, 54)           0           gru_2[7][0]                      
__________________________________________________________________________________________________
lambda_192 (Lambda)             (None, 54)           0           gru_2[7][0]                      
__________________________________________________________________________________________________
lambda_193 (Lambda)             (None, 54)           0           gru_2[7][0]                      
__________________________________________________________________________________________________
lambda_194 (Lambda)             (None, 54)           0           gru_2[7][0]                      
__________________________________________________________________________________________________
lambda_195 (Lambda)             (None, 54)           0           gru_2[7][0]                      
__________________________________________________________________________________________________
lambda_196 (Lambda)             (None, 54)           0           gru_2[7][0]                      
__________________________________________________________________________________________________
lambda_197 (Lambda)             (None, 54)           0           gru_2[7][0]                      
__________________________________________________________________________________________________
lambda_198 (Lambda)             (None, 54)           0           gru_2[7][0]                      
__________________________________________________________________________________________________
lambda_199 (Lambda)             (None, 54)           0           gru_2[7][0]                      
__________________________________________________________________________________________________
lambda_200 (Lambda)             (None, 54)           0           gru_2[7][0]                      
__________________________________________________________________________________________________
lambda_201 (Lambda)             (None, 54)           0           gru_2[7][0]                      
__________________________________________________________________________________________________
lambda_202 (Lambda)             (None, 54)           0           gru_2[7][0]                      
__________________________________________________________________________________________________
lambda_203 (Lambda)             (None, 54)           0           gru_2[7][0]                      
__________________________________________________________________________________________________
lambda_204 (Lambda)             (None, 54)           0           gru_2[7][0]                      
__________________________________________________________________________________________________
lambda_205 (Lambda)             (None, 54)           0           gru_2[7][0]                      
__________________________________________________________________________________________________
lambda_206 (Lambda)             (None, 54)           0           gru_2[7][0]                      
__________________________________________________________________________________________________
lambda_207 (Lambda)             (None, 54)           0           gru_2[7][0]                      
__________________________________________________________________________________________________
lambda_208 (Lambda)             (None, 54)           0           gru_2[7][0]                      
__________________________________________________________________________________________________
lambda_210 (Lambda)             (None, 54)           0           gru_2[8][0]                      
__________________________________________________________________________________________________
lambda_211 (Lambda)             (None, 54)           0           gru_2[8][0]                      
__________________________________________________________________________________________________
lambda_212 (Lambda)             (None, 54)           0           gru_2[8][0]                      
__________________________________________________________________________________________________
lambda_213 (Lambda)             (None, 54)           0           gru_2[8][0]                      
__________________________________________________________________________________________________
lambda_214 (Lambda)             (None, 54)           0           gru_2[8][0]                      
__________________________________________________________________________________________________
lambda_215 (Lambda)             (None, 54)           0           gru_2[8][0]                      
__________________________________________________________________________________________________
lambda_216 (Lambda)             (None, 54)           0           gru_2[8][0]                      
__________________________________________________________________________________________________
lambda_217 (Lambda)             (None, 54)           0           gru_2[8][0]                      
__________________________________________________________________________________________________
lambda_218 (Lambda)             (None, 54)           0           gru_2[8][0]                      
__________________________________________________________________________________________________
lambda_219 (Lambda)             (None, 54)           0           gru_2[8][0]                      
__________________________________________________________________________________________________
lambda_220 (Lambda)             (None, 54)           0           gru_2[8][0]                      
__________________________________________________________________________________________________
lambda_221 (Lambda)             (None, 54)           0           gru_2[8][0]                      
__________________________________________________________________________________________________
lambda_222 (Lambda)             (None, 54)           0           gru_2[8][0]                      
__________________________________________________________________________________________________
lambda_223 (Lambda)             (None, 54)           0           gru_2[8][0]                      
__________________________________________________________________________________________________
lambda_224 (Lambda)             (None, 54)           0           gru_2[8][0]                      
__________________________________________________________________________________________________
lambda_225 (Lambda)             (None, 54)           0           gru_2[8][0]                      
__________________________________________________________________________________________________
lambda_226 (Lambda)             (None, 54)           0           gru_2[8][0]                      
__________________________________________________________________________________________________
lambda_227 (Lambda)             (None, 54)           0           gru_2[8][0]                      
__________________________________________________________________________________________________
lambda_228 (Lambda)             (None, 54)           0           gru_2[8][0]                      
__________________________________________________________________________________________________
lambda_229 (Lambda)             (None, 54)           0           gru_2[8][0]                      
__________________________________________________________________________________________________
lambda_230 (Lambda)             (None, 54)           0           gru_2[8][0]                      
__________________________________________________________________________________________________
lambda_231 (Lambda)             (None, 54)           0           gru_2[8][0]                      
__________________________________________________________________________________________________
lambda_232 (Lambda)             (None, 54)           0           gru_2[8][0]                      
__________________________________________________________________________________________________
lambda_233 (Lambda)             (None, 54)           0           gru_2[8][0]                      
__________________________________________________________________________________________________
lambda_234 (Lambda)             (None, 54)           0           gru_2[8][0]                      
__________________________________________________________________________________________________
lambda_236 (Lambda)             (None, 54)           0           gru_2[9][0]                      
__________________________________________________________________________________________________
lambda_237 (Lambda)             (None, 54)           0           gru_2[9][0]                      
__________________________________________________________________________________________________
lambda_238 (Lambda)             (None, 54)           0           gru_2[9][0]                      
__________________________________________________________________________________________________
lambda_239 (Lambda)             (None, 54)           0           gru_2[9][0]                      
__________________________________________________________________________________________________
lambda_240 (Lambda)             (None, 54)           0           gru_2[9][0]                      
__________________________________________________________________________________________________
lambda_241 (Lambda)             (None, 54)           0           gru_2[9][0]                      
__________________________________________________________________________________________________
lambda_242 (Lambda)             (None, 54)           0           gru_2[9][0]                      
__________________________________________________________________________________________________
lambda_243 (Lambda)             (None, 54)           0           gru_2[9][0]                      
__________________________________________________________________________________________________
lambda_244 (Lambda)             (None, 54)           0           gru_2[9][0]                      
__________________________________________________________________________________________________
lambda_245 (Lambda)             (None, 54)           0           gru_2[9][0]                      
__________________________________________________________________________________________________
lambda_246 (Lambda)             (None, 54)           0           gru_2[9][0]                      
__________________________________________________________________________________________________
lambda_247 (Lambda)             (None, 54)           0           gru_2[9][0]                      
__________________________________________________________________________________________________
lambda_248 (Lambda)             (None, 54)           0           gru_2[9][0]                      
__________________________________________________________________________________________________
lambda_249 (Lambda)             (None, 54)           0           gru_2[9][0]                      
__________________________________________________________________________________________________
lambda_250 (Lambda)             (None, 54)           0           gru_2[9][0]                      
__________________________________________________________________________________________________
lambda_251 (Lambda)             (None, 54)           0           gru_2[9][0]                      
__________________________________________________________________________________________________
lambda_252 (Lambda)             (None, 54)           0           gru_2[9][0]                      
__________________________________________________________________________________________________
lambda_253 (Lambda)             (None, 54)           0           gru_2[9][0]                      
__________________________________________________________________________________________________
lambda_254 (Lambda)             (None, 54)           0           gru_2[9][0]                      
__________________________________________________________________________________________________
lambda_255 (Lambda)             (None, 54)           0           gru_2[9][0]                      
__________________________________________________________________________________________________
lambda_256 (Lambda)             (None, 54)           0           gru_2[9][0]                      
__________________________________________________________________________________________________
lambda_257 (Lambda)             (None, 54)           0           gru_2[9][0]                      
__________________________________________________________________________________________________
lambda_258 (Lambda)             (None, 54)           0           gru_2[9][0]                      
__________________________________________________________________________________________________
lambda_259 (Lambda)             (None, 54)           0           gru_2[9][0]                      
__________________________________________________________________________________________________
lambda_260 (Lambda)             (None, 54)           0           gru_2[9][0]                      
__________________________________________________________________________________________________
lambda_262 (Lambda)             (None, 54)           0           gru_2[10][0]                     
__________________________________________________________________________________________________
lambda_263 (Lambda)             (None, 54)           0           gru_2[10][0]                     
__________________________________________________________________________________________________
lambda_264 (Lambda)             (None, 54)           0           gru_2[10][0]                     
__________________________________________________________________________________________________
lambda_265 (Lambda)             (None, 54)           0           gru_2[10][0]                     
__________________________________________________________________________________________________
lambda_266 (Lambda)             (None, 54)           0           gru_2[10][0]                     
__________________________________________________________________________________________________
lambda_267 (Lambda)             (None, 54)           0           gru_2[10][0]                     
__________________________________________________________________________________________________
lambda_268 (Lambda)             (None, 54)           0           gru_2[10][0]                     
__________________________________________________________________________________________________
lambda_269 (Lambda)             (None, 54)           0           gru_2[10][0]                     
__________________________________________________________________________________________________
lambda_270 (Lambda)             (None, 54)           0           gru_2[10][0]                     
__________________________________________________________________________________________________
lambda_271 (Lambda)             (None, 54)           0           gru_2[10][0]                     
__________________________________________________________________________________________________
lambda_272 (Lambda)             (None, 54)           0           gru_2[10][0]                     
__________________________________________________________________________________________________
lambda_273 (Lambda)             (None, 54)           0           gru_2[10][0]                     
__________________________________________________________________________________________________
lambda_274 (Lambda)             (None, 54)           0           gru_2[10][0]                     
__________________________________________________________________________________________________
lambda_275 (Lambda)             (None, 54)           0           gru_2[10][0]                     
__________________________________________________________________________________________________
lambda_276 (Lambda)             (None, 54)           0           gru_2[10][0]                     
__________________________________________________________________________________________________
lambda_277 (Lambda)             (None, 54)           0           gru_2[10][0]                     
__________________________________________________________________________________________________
lambda_278 (Lambda)             (None, 54)           0           gru_2[10][0]                     
__________________________________________________________________________________________________
lambda_279 (Lambda)             (None, 54)           0           gru_2[10][0]                     
__________________________________________________________________________________________________
lambda_280 (Lambda)             (None, 54)           0           gru_2[10][0]                     
__________________________________________________________________________________________________
lambda_281 (Lambda)             (None, 54)           0           gru_2[10][0]                     
__________________________________________________________________________________________________
lambda_282 (Lambda)             (None, 54)           0           gru_2[10][0]                     
__________________________________________________________________________________________________
lambda_283 (Lambda)             (None, 54)           0           gru_2[10][0]                     
__________________________________________________________________________________________________
lambda_284 (Lambda)             (None, 54)           0           gru_2[10][0]                     
__________________________________________________________________________________________________
lambda_285 (Lambda)             (None, 54)           0           gru_2[10][0]                     
__________________________________________________________________________________________________
lambda_286 (Lambda)             (None, 54)           0           gru_2[10][0]                     
__________________________________________________________________________________________________
lambda_288 (Lambda)             (None, 54)           0           gru_2[11][0]                     
__________________________________________________________________________________________________
lambda_289 (Lambda)             (None, 54)           0           gru_2[11][0]                     
__________________________________________________________________________________________________
lambda_290 (Lambda)             (None, 54)           0           gru_2[11][0]                     
__________________________________________________________________________________________________
lambda_291 (Lambda)             (None, 54)           0           gru_2[11][0]                     
__________________________________________________________________________________________________
lambda_292 (Lambda)             (None, 54)           0           gru_2[11][0]                     
__________________________________________________________________________________________________
lambda_293 (Lambda)             (None, 54)           0           gru_2[11][0]                     
__________________________________________________________________________________________________
lambda_294 (Lambda)             (None, 54)           0           gru_2[11][0]                     
__________________________________________________________________________________________________
lambda_295 (Lambda)             (None, 54)           0           gru_2[11][0]                     
__________________________________________________________________________________________________
lambda_296 (Lambda)             (None, 54)           0           gru_2[11][0]                     
__________________________________________________________________________________________________
lambda_297 (Lambda)             (None, 54)           0           gru_2[11][0]                     
__________________________________________________________________________________________________
lambda_298 (Lambda)             (None, 54)           0           gru_2[11][0]                     
__________________________________________________________________________________________________
lambda_299 (Lambda)             (None, 54)           0           gru_2[11][0]                     
__________________________________________________________________________________________________
lambda_300 (Lambda)             (None, 54)           0           gru_2[11][0]                     
__________________________________________________________________________________________________
lambda_301 (Lambda)             (None, 54)           0           gru_2[11][0]                     
__________________________________________________________________________________________________
lambda_302 (Lambda)             (None, 54)           0           gru_2[11][0]                     
__________________________________________________________________________________________________
lambda_303 (Lambda)             (None, 54)           0           gru_2[11][0]                     
__________________________________________________________________________________________________
lambda_304 (Lambda)             (None, 54)           0           gru_2[11][0]                     
__________________________________________________________________________________________________
lambda_305 (Lambda)             (None, 54)           0           gru_2[11][0]                     
__________________________________________________________________________________________________
lambda_306 (Lambda)             (None, 54)           0           gru_2[11][0]                     
__________________________________________________________________________________________________
lambda_307 (Lambda)             (None, 54)           0           gru_2[11][0]                     
__________________________________________________________________________________________________
lambda_308 (Lambda)             (None, 54)           0           gru_2[11][0]                     
__________________________________________________________________________________________________
lambda_309 (Lambda)             (None, 54)           0           gru_2[11][0]                     
__________________________________________________________________________________________________
lambda_310 (Lambda)             (None, 54)           0           gru_2[11][0]                     
__________________________________________________________________________________________________
lambda_311 (Lambda)             (None, 54)           0           gru_2[11][0]                     
__________________________________________________________________________________________________
lambda_312 (Lambda)             (None, 54)           0           gru_2[11][0]                     
__________________________________________________________________________________________________
lambda_314 (Lambda)             (None, 54)           0           gru_2[12][0]                     
__________________________________________________________________________________________________
lambda_315 (Lambda)             (None, 54)           0           gru_2[12][0]                     
__________________________________________________________________________________________________
lambda_316 (Lambda)             (None, 54)           0           gru_2[12][0]                     
__________________________________________________________________________________________________
lambda_317 (Lambda)             (None, 54)           0           gru_2[12][0]                     
__________________________________________________________________________________________________
lambda_318 (Lambda)             (None, 54)           0           gru_2[12][0]                     
__________________________________________________________________________________________________
lambda_319 (Lambda)             (None, 54)           0           gru_2[12][0]                     
__________________________________________________________________________________________________
lambda_320 (Lambda)             (None, 54)           0           gru_2[12][0]                     
__________________________________________________________________________________________________
lambda_321 (Lambda)             (None, 54)           0           gru_2[12][0]                     
__________________________________________________________________________________________________
lambda_322 (Lambda)             (None, 54)           0           gru_2[12][0]                     
__________________________________________________________________________________________________
lambda_323 (Lambda)             (None, 54)           0           gru_2[12][0]                     
__________________________________________________________________________________________________
lambda_324 (Lambda)             (None, 54)           0           gru_2[12][0]                     
__________________________________________________________________________________________________
lambda_325 (Lambda)             (None, 54)           0           gru_2[12][0]                     
__________________________________________________________________________________________________
lambda_326 (Lambda)             (None, 54)           0           gru_2[12][0]                     
__________________________________________________________________________________________________
lambda_327 (Lambda)             (None, 54)           0           gru_2[12][0]                     
__________________________________________________________________________________________________
lambda_328 (Lambda)             (None, 54)           0           gru_2[12][0]                     
__________________________________________________________________________________________________
lambda_329 (Lambda)             (None, 54)           0           gru_2[12][0]                     
__________________________________________________________________________________________________
lambda_330 (Lambda)             (None, 54)           0           gru_2[12][0]                     
__________________________________________________________________________________________________
lambda_331 (Lambda)             (None, 54)           0           gru_2[12][0]                     
__________________________________________________________________________________________________
lambda_332 (Lambda)             (None, 54)           0           gru_2[12][0]                     
__________________________________________________________________________________________________
lambda_333 (Lambda)             (None, 54)           0           gru_2[12][0]                     
__________________________________________________________________________________________________
lambda_334 (Lambda)             (None, 54)           0           gru_2[12][0]                     
__________________________________________________________________________________________________
lambda_335 (Lambda)             (None, 54)           0           gru_2[12][0]                     
__________________________________________________________________________________________________
lambda_336 (Lambda)             (None, 54)           0           gru_2[12][0]                     
__________________________________________________________________________________________________
lambda_337 (Lambda)             (None, 54)           0           gru_2[12][0]                     
__________________________________________________________________________________________________
lambda_338 (Lambda)             (None, 54)           0           gru_2[12][0]                     
__________________________________________________________________________________________________
lambda_340 (Lambda)             (None, 54)           0           gru_2[13][0]                     
__________________________________________________________________________________________________
lambda_341 (Lambda)             (None, 54)           0           gru_2[13][0]                     
__________________________________________________________________________________________________
lambda_342 (Lambda)             (None, 54)           0           gru_2[13][0]                     
__________________________________________________________________________________________________
lambda_343 (Lambda)             (None, 54)           0           gru_2[13][0]                     
__________________________________________________________________________________________________
lambda_344 (Lambda)             (None, 54)           0           gru_2[13][0]                     
__________________________________________________________________________________________________
lambda_345 (Lambda)             (None, 54)           0           gru_2[13][0]                     
__________________________________________________________________________________________________
lambda_346 (Lambda)             (None, 54)           0           gru_2[13][0]                     
__________________________________________________________________________________________________
lambda_347 (Lambda)             (None, 54)           0           gru_2[13][0]                     
__________________________________________________________________________________________________
lambda_348 (Lambda)             (None, 54)           0           gru_2[13][0]                     
__________________________________________________________________________________________________
lambda_349 (Lambda)             (None, 54)           0           gru_2[13][0]                     
__________________________________________________________________________________________________
lambda_350 (Lambda)             (None, 54)           0           gru_2[13][0]                     
__________________________________________________________________________________________________
lambda_351 (Lambda)             (None, 54)           0           gru_2[13][0]                     
__________________________________________________________________________________________________
lambda_352 (Lambda)             (None, 54)           0           gru_2[13][0]                     
__________________________________________________________________________________________________
lambda_353 (Lambda)             (None, 54)           0           gru_2[13][0]                     
__________________________________________________________________________________________________
lambda_354 (Lambda)             (None, 54)           0           gru_2[13][0]                     
__________________________________________________________________________________________________
lambda_355 (Lambda)             (None, 54)           0           gru_2[13][0]                     
__________________________________________________________________________________________________
lambda_356 (Lambda)             (None, 54)           0           gru_2[13][0]                     
__________________________________________________________________________________________________
lambda_357 (Lambda)             (None, 54)           0           gru_2[13][0]                     
__________________________________________________________________________________________________
lambda_358 (Lambda)             (None, 54)           0           gru_2[13][0]                     
__________________________________________________________________________________________________
lambda_359 (Lambda)             (None, 54)           0           gru_2[13][0]                     
__________________________________________________________________________________________________
lambda_360 (Lambda)             (None, 54)           0           gru_2[13][0]                     
__________________________________________________________________________________________________
lambda_361 (Lambda)             (None, 54)           0           gru_2[13][0]                     
__________________________________________________________________________________________________
lambda_362 (Lambda)             (None, 54)           0           gru_2[13][0]                     
__________________________________________________________________________________________________
lambda_363 (Lambda)             (None, 54)           0           gru_2[13][0]                     
__________________________________________________________________________________________________
lambda_364 (Lambda)             (None, 54)           0           gru_2[13][0]                     
__________________________________________________________________________________________________
lambda_366 (Lambda)             (None, 54)           0           gru_2[14][0]                     
__________________________________________________________________________________________________
lambda_367 (Lambda)             (None, 54)           0           gru_2[14][0]                     
__________________________________________________________________________________________________
lambda_368 (Lambda)             (None, 54)           0           gru_2[14][0]                     
__________________________________________________________________________________________________
lambda_369 (Lambda)             (None, 54)           0           gru_2[14][0]                     
__________________________________________________________________________________________________
lambda_370 (Lambda)             (None, 54)           0           gru_2[14][0]                     
__________________________________________________________________________________________________
lambda_371 (Lambda)             (None, 54)           0           gru_2[14][0]                     
__________________________________________________________________________________________________
lambda_372 (Lambda)             (None, 54)           0           gru_2[14][0]                     
__________________________________________________________________________________________________
lambda_373 (Lambda)             (None, 54)           0           gru_2[14][0]                     
__________________________________________________________________________________________________
lambda_374 (Lambda)             (None, 54)           0           gru_2[14][0]                     
__________________________________________________________________________________________________
lambda_375 (Lambda)             (None, 54)           0           gru_2[14][0]                     
__________________________________________________________________________________________________
lambda_376 (Lambda)             (None, 54)           0           gru_2[14][0]                     
__________________________________________________________________________________________________
lambda_377 (Lambda)             (None, 54)           0           gru_2[14][0]                     
__________________________________________________________________________________________________
lambda_378 (Lambda)             (None, 54)           0           gru_2[14][0]                     
__________________________________________________________________________________________________
lambda_379 (Lambda)             (None, 54)           0           gru_2[14][0]                     
__________________________________________________________________________________________________
lambda_380 (Lambda)             (None, 54)           0           gru_2[14][0]                     
__________________________________________________________________________________________________
lambda_381 (Lambda)             (None, 54)           0           gru_2[14][0]                     
__________________________________________________________________________________________________
lambda_382 (Lambda)             (None, 54)           0           gru_2[14][0]                     
__________________________________________________________________________________________________
lambda_383 (Lambda)             (None, 54)           0           gru_2[14][0]                     
__________________________________________________________________________________________________
lambda_384 (Lambda)             (None, 54)           0           gru_2[14][0]                     
__________________________________________________________________________________________________
lambda_385 (Lambda)             (None, 54)           0           gru_2[14][0]                     
__________________________________________________________________________________________________
lambda_386 (Lambda)             (None, 54)           0           gru_2[14][0]                     
__________________________________________________________________________________________________
lambda_387 (Lambda)             (None, 54)           0           gru_2[14][0]                     
__________________________________________________________________________________________________
lambda_388 (Lambda)             (None, 54)           0           gru_2[14][0]                     
__________________________________________________________________________________________________
lambda_389 (Lambda)             (None, 54)           0           gru_2[14][0]                     
__________________________________________________________________________________________________
lambda_390 (Lambda)             (None, 54)           0           gru_2[14][0]                     
__________________________________________________________________________________________________
lambda_392 (Lambda)             (None, 54)           0           gru_2[15][0]                     
__________________________________________________________________________________________________
lambda_393 (Lambda)             (None, 54)           0           gru_2[15][0]                     
__________________________________________________________________________________________________
lambda_394 (Lambda)             (None, 54)           0           gru_2[15][0]                     
__________________________________________________________________________________________________
lambda_395 (Lambda)             (None, 54)           0           gru_2[15][0]                     
__________________________________________________________________________________________________
lambda_396 (Lambda)             (None, 54)           0           gru_2[15][0]                     
__________________________________________________________________________________________________
lambda_397 (Lambda)             (None, 54)           0           gru_2[15][0]                     
__________________________________________________________________________________________________
lambda_398 (Lambda)             (None, 54)           0           gru_2[15][0]                     
__________________________________________________________________________________________________
lambda_399 (Lambda)             (None, 54)           0           gru_2[15][0]                     
__________________________________________________________________________________________________
lambda_400 (Lambda)             (None, 54)           0           gru_2[15][0]                     
__________________________________________________________________________________________________
lambda_401 (Lambda)             (None, 54)           0           gru_2[15][0]                     
__________________________________________________________________________________________________
lambda_402 (Lambda)             (None, 54)           0           gru_2[15][0]                     
__________________________________________________________________________________________________
lambda_403 (Lambda)             (None, 54)           0           gru_2[15][0]                     
__________________________________________________________________________________________________
lambda_404 (Lambda)             (None, 54)           0           gru_2[15][0]                     
__________________________________________________________________________________________________
lambda_405 (Lambda)             (None, 54)           0           gru_2[15][0]                     
__________________________________________________________________________________________________
lambda_406 (Lambda)             (None, 54)           0           gru_2[15][0]                     
__________________________________________________________________________________________________
lambda_407 (Lambda)             (None, 54)           0           gru_2[15][0]                     
__________________________________________________________________________________________________
lambda_408 (Lambda)             (None, 54)           0           gru_2[15][0]                     
__________________________________________________________________________________________________
lambda_409 (Lambda)             (None, 54)           0           gru_2[15][0]                     
__________________________________________________________________________________________________
lambda_410 (Lambda)             (None, 54)           0           gru_2[15][0]                     
__________________________________________________________________________________________________
lambda_411 (Lambda)             (None, 54)           0           gru_2[15][0]                     
__________________________________________________________________________________________________
lambda_412 (Lambda)             (None, 54)           0           gru_2[15][0]                     
__________________________________________________________________________________________________
lambda_413 (Lambda)             (None, 54)           0           gru_2[15][0]                     
__________________________________________________________________________________________________
lambda_414 (Lambda)             (None, 54)           0           gru_2[15][0]                     
__________________________________________________________________________________________________
lambda_415 (Lambda)             (None, 54)           0           gru_2[15][0]                     
__________________________________________________________________________________________________
lambda_416 (Lambda)             (None, 54)           0           gru_2[15][0]                     
__________________________________________________________________________________________________
lambda_418 (Lambda)             (None, 54)           0           gru_2[16][0]                     
__________________________________________________________________________________________________
lambda_419 (Lambda)             (None, 54)           0           gru_2[16][0]                     
__________________________________________________________________________________________________
lambda_420 (Lambda)             (None, 54)           0           gru_2[16][0]                     
__________________________________________________________________________________________________
lambda_421 (Lambda)             (None, 54)           0           gru_2[16][0]                     
__________________________________________________________________________________________________
lambda_422 (Lambda)             (None, 54)           0           gru_2[16][0]                     
__________________________________________________________________________________________________
lambda_423 (Lambda)             (None, 54)           0           gru_2[16][0]                     
__________________________________________________________________________________________________
lambda_424 (Lambda)             (None, 54)           0           gru_2[16][0]                     
__________________________________________________________________________________________________
lambda_425 (Lambda)             (None, 54)           0           gru_2[16][0]                     
__________________________________________________________________________________________________
lambda_426 (Lambda)             (None, 54)           0           gru_2[16][0]                     
__________________________________________________________________________________________________
lambda_427 (Lambda)             (None, 54)           0           gru_2[16][0]                     
__________________________________________________________________________________________________
lambda_428 (Lambda)             (None, 54)           0           gru_2[16][0]                     
__________________________________________________________________________________________________
lambda_429 (Lambda)             (None, 54)           0           gru_2[16][0]                     
__________________________________________________________________________________________________
lambda_430 (Lambda)             (None, 54)           0           gru_2[16][0]                     
__________________________________________________________________________________________________
lambda_431 (Lambda)             (None, 54)           0           gru_2[16][0]                     
__________________________________________________________________________________________________
lambda_432 (Lambda)             (None, 54)           0           gru_2[16][0]                     
__________________________________________________________________________________________________
lambda_433 (Lambda)             (None, 54)           0           gru_2[16][0]                     
__________________________________________________________________________________________________
lambda_434 (Lambda)             (None, 54)           0           gru_2[16][0]                     
__________________________________________________________________________________________________
lambda_435 (Lambda)             (None, 54)           0           gru_2[16][0]                     
__________________________________________________________________________________________________
lambda_436 (Lambda)             (None, 54)           0           gru_2[16][0]                     
__________________________________________________________________________________________________
lambda_437 (Lambda)             (None, 54)           0           gru_2[16][0]                     
__________________________________________________________________________________________________
lambda_438 (Lambda)             (None, 54)           0           gru_2[16][0]                     
__________________________________________________________________________________________________
lambda_439 (Lambda)             (None, 54)           0           gru_2[16][0]                     
__________________________________________________________________________________________________
lambda_440 (Lambda)             (None, 54)           0           gru_2[16][0]                     
__________________________________________________________________________________________________
lambda_441 (Lambda)             (None, 54)           0           gru_2[16][0]                     
__________________________________________________________________________________________________
lambda_442 (Lambda)             (None, 54)           0           gru_2[16][0]                     
__________________________________________________________________________________________________
lambda_444 (Lambda)             (None, 54)           0           gru_2[17][0]                     
__________________________________________________________________________________________________
lambda_445 (Lambda)             (None, 54)           0           gru_2[17][0]                     
__________________________________________________________________________________________________
lambda_446 (Lambda)             (None, 54)           0           gru_2[17][0]                     
__________________________________________________________________________________________________
lambda_447 (Lambda)             (None, 54)           0           gru_2[17][0]                     
__________________________________________________________________________________________________
lambda_448 (Lambda)             (None, 54)           0           gru_2[17][0]                     
__________________________________________________________________________________________________
lambda_449 (Lambda)             (None, 54)           0           gru_2[17][0]                     
__________________________________________________________________________________________________
lambda_450 (Lambda)             (None, 54)           0           gru_2[17][0]                     
__________________________________________________________________________________________________
lambda_451 (Lambda)             (None, 54)           0           gru_2[17][0]                     
__________________________________________________________________________________________________
lambda_452 (Lambda)             (None, 54)           0           gru_2[17][0]                     
__________________________________________________________________________________________________
lambda_453 (Lambda)             (None, 54)           0           gru_2[17][0]                     
__________________________________________________________________________________________________
lambda_454 (Lambda)             (None, 54)           0           gru_2[17][0]                     
__________________________________________________________________________________________________
lambda_455 (Lambda)             (None, 54)           0           gru_2[17][0]                     
__________________________________________________________________________________________________
lambda_456 (Lambda)             (None, 54)           0           gru_2[17][0]                     
__________________________________________________________________________________________________
lambda_457 (Lambda)             (None, 54)           0           gru_2[17][0]                     
__________________________________________________________________________________________________
lambda_458 (Lambda)             (None, 54)           0           gru_2[17][0]                     
__________________________________________________________________________________________________
lambda_459 (Lambda)             (None, 54)           0           gru_2[17][0]                     
__________________________________________________________________________________________________
lambda_460 (Lambda)             (None, 54)           0           gru_2[17][0]                     
__________________________________________________________________________________________________
lambda_461 (Lambda)             (None, 54)           0           gru_2[17][0]                     
__________________________________________________________________________________________________
lambda_462 (Lambda)             (None, 54)           0           gru_2[17][0]                     
__________________________________________________________________________________________________
lambda_463 (Lambda)             (None, 54)           0           gru_2[17][0]                     
__________________________________________________________________________________________________
lambda_464 (Lambda)             (None, 54)           0           gru_2[17][0]                     
__________________________________________________________________________________________________
lambda_465 (Lambda)             (None, 54)           0           gru_2[17][0]                     
__________________________________________________________________________________________________
lambda_466 (Lambda)             (None, 54)           0           gru_2[17][0]                     
__________________________________________________________________________________________________
lambda_467 (Lambda)             (None, 54)           0           gru_2[17][0]                     
__________________________________________________________________________________________________
lambda_468 (Lambda)             (None, 54)           0           gru_2[17][0]                     
__________________________________________________________________________________________________
lambda_470 (Lambda)             (None, 54)           0           gru_2[18][0]                     
__________________________________________________________________________________________________
lambda_471 (Lambda)             (None, 54)           0           gru_2[18][0]                     
__________________________________________________________________________________________________
lambda_472 (Lambda)             (None, 54)           0           gru_2[18][0]                     
__________________________________________________________________________________________________
lambda_473 (Lambda)             (None, 54)           0           gru_2[18][0]                     
__________________________________________________________________________________________________
lambda_474 (Lambda)             (None, 54)           0           gru_2[18][0]                     
__________________________________________________________________________________________________
lambda_475 (Lambda)             (None, 54)           0           gru_2[18][0]                     
__________________________________________________________________________________________________
lambda_476 (Lambda)             (None, 54)           0           gru_2[18][0]                     
__________________________________________________________________________________________________
lambda_477 (Lambda)             (None, 54)           0           gru_2[18][0]                     
__________________________________________________________________________________________________
lambda_478 (Lambda)             (None, 54)           0           gru_2[18][0]                     
__________________________________________________________________________________________________
lambda_479 (Lambda)             (None, 54)           0           gru_2[18][0]                     
__________________________________________________________________________________________________
lambda_480 (Lambda)             (None, 54)           0           gru_2[18][0]                     
__________________________________________________________________________________________________
lambda_481 (Lambda)             (None, 54)           0           gru_2[18][0]                     
__________________________________________________________________________________________________
lambda_482 (Lambda)             (None, 54)           0           gru_2[18][0]                     
__________________________________________________________________________________________________
lambda_483 (Lambda)             (None, 54)           0           gru_2[18][0]                     
__________________________________________________________________________________________________
lambda_484 (Lambda)             (None, 54)           0           gru_2[18][0]                     
__________________________________________________________________________________________________
lambda_485 (Lambda)             (None, 54)           0           gru_2[18][0]                     
__________________________________________________________________________________________________
lambda_486 (Lambda)             (None, 54)           0           gru_2[18][0]                     
__________________________________________________________________________________________________
lambda_487 (Lambda)             (None, 54)           0           gru_2[18][0]                     
__________________________________________________________________________________________________
lambda_488 (Lambda)             (None, 54)           0           gru_2[18][0]                     
__________________________________________________________________________________________________
lambda_489 (Lambda)             (None, 54)           0           gru_2[18][0]                     
__________________________________________________________________________________________________
lambda_490 (Lambda)             (None, 54)           0           gru_2[18][0]                     
__________________________________________________________________________________________________
lambda_491 (Lambda)             (None, 54)           0           gru_2[18][0]                     
__________________________________________________________________________________________________
lambda_492 (Lambda)             (None, 54)           0           gru_2[18][0]                     
__________________________________________________________________________________________________
lambda_493 (Lambda)             (None, 54)           0           gru_2[18][0]                     
__________________________________________________________________________________________________
lambda_494 (Lambda)             (None, 54)           0           gru_2[18][0]                     
__________________________________________________________________________________________________
lambda_496 (Lambda)             (None, 54)           0           gru_2[19][0]                     
__________________________________________________________________________________________________
lambda_497 (Lambda)             (None, 54)           0           gru_2[19][0]                     
__________________________________________________________________________________________________
lambda_498 (Lambda)             (None, 54)           0           gru_2[19][0]                     
__________________________________________________________________________________________________
lambda_499 (Lambda)             (None, 54)           0           gru_2[19][0]                     
__________________________________________________________________________________________________
lambda_500 (Lambda)             (None, 54)           0           gru_2[19][0]                     
__________________________________________________________________________________________________
lambda_501 (Lambda)             (None, 54)           0           gru_2[19][0]                     
__________________________________________________________________________________________________
lambda_502 (Lambda)             (None, 54)           0           gru_2[19][0]                     
__________________________________________________________________________________________________
lambda_503 (Lambda)             (None, 54)           0           gru_2[19][0]                     
__________________________________________________________________________________________________
lambda_504 (Lambda)             (None, 54)           0           gru_2[19][0]                     
__________________________________________________________________________________________________
lambda_505 (Lambda)             (None, 54)           0           gru_2[19][0]                     
__________________________________________________________________________________________________
lambda_506 (Lambda)             (None, 54)           0           gru_2[19][0]                     
__________________________________________________________________________________________________
lambda_507 (Lambda)             (None, 54)           0           gru_2[19][0]                     
__________________________________________________________________________________________________
lambda_508 (Lambda)             (None, 54)           0           gru_2[19][0]                     
__________________________________________________________________________________________________
lambda_509 (Lambda)             (None, 54)           0           gru_2[19][0]                     
__________________________________________________________________________________________________
lambda_510 (Lambda)             (None, 54)           0           gru_2[19][0]                     
__________________________________________________________________________________________________
lambda_511 (Lambda)             (None, 54)           0           gru_2[19][0]                     
__________________________________________________________________________________________________
lambda_512 (Lambda)             (None, 54)           0           gru_2[19][0]                     
__________________________________________________________________________________________________
lambda_513 (Lambda)             (None, 54)           0           gru_2[19][0]                     
__________________________________________________________________________________________________
lambda_514 (Lambda)             (None, 54)           0           gru_2[19][0]                     
__________________________________________________________________________________________________
lambda_515 (Lambda)             (None, 54)           0           gru_2[19][0]                     
__________________________________________________________________________________________________
lambda_516 (Lambda)             (None, 54)           0           gru_2[19][0]                     
__________________________________________________________________________________________________
lambda_517 (Lambda)             (None, 54)           0           gru_2[19][0]                     
__________________________________________________________________________________________________
lambda_518 (Lambda)             (None, 54)           0           gru_2[19][0]                     
__________________________________________________________________________________________________
lambda_519 (Lambda)             (None, 54)           0           gru_2[19][0]                     
__________________________________________________________________________________________________
lambda_520 (Lambda)             (None, 54)           0           gru_2[19][0]                     
__________________________________________________________________________________________________
lambda_522 (Lambda)             (None, 54)           0           gru_2[20][0]                     
__________________________________________________________________________________________________
lambda_523 (Lambda)             (None, 54)           0           gru_2[20][0]                     
__________________________________________________________________________________________________
lambda_524 (Lambda)             (None, 54)           0           gru_2[20][0]                     
__________________________________________________________________________________________________
lambda_525 (Lambda)             (None, 54)           0           gru_2[20][0]                     
__________________________________________________________________________________________________
lambda_526 (Lambda)             (None, 54)           0           gru_2[20][0]                     
__________________________________________________________________________________________________
lambda_527 (Lambda)             (None, 54)           0           gru_2[20][0]                     
__________________________________________________________________________________________________
lambda_528 (Lambda)             (None, 54)           0           gru_2[20][0]                     
__________________________________________________________________________________________________
lambda_529 (Lambda)             (None, 54)           0           gru_2[20][0]                     
__________________________________________________________________________________________________
lambda_530 (Lambda)             (None, 54)           0           gru_2[20][0]                     
__________________________________________________________________________________________________
lambda_531 (Lambda)             (None, 54)           0           gru_2[20][0]                     
__________________________________________________________________________________________________
lambda_532 (Lambda)             (None, 54)           0           gru_2[20][0]                     
__________________________________________________________________________________________________
lambda_533 (Lambda)             (None, 54)           0           gru_2[20][0]                     
__________________________________________________________________________________________________
lambda_534 (Lambda)             (None, 54)           0           gru_2[20][0]                     
__________________________________________________________________________________________________
lambda_535 (Lambda)             (None, 54)           0           gru_2[20][0]                     
__________________________________________________________________________________________________
lambda_536 (Lambda)             (None, 54)           0           gru_2[20][0]                     
__________________________________________________________________________________________________
lambda_537 (Lambda)             (None, 54)           0           gru_2[20][0]                     
__________________________________________________________________________________________________
lambda_538 (Lambda)             (None, 54)           0           gru_2[20][0]                     
__________________________________________________________________________________________________
lambda_539 (Lambda)             (None, 54)           0           gru_2[20][0]                     
__________________________________________________________________________________________________
lambda_540 (Lambda)             (None, 54)           0           gru_2[20][0]                     
__________________________________________________________________________________________________
lambda_541 (Lambda)             (None, 54)           0           gru_2[20][0]                     
__________________________________________________________________________________________________
lambda_542 (Lambda)             (None, 54)           0           gru_2[20][0]                     
__________________________________________________________________________________________________
lambda_543 (Lambda)             (None, 54)           0           gru_2[20][0]                     
__________________________________________________________________________________________________
lambda_544 (Lambda)             (None, 54)           0           gru_2[20][0]                     
__________________________________________________________________________________________________
lambda_545 (Lambda)             (None, 54)           0           gru_2[20][0]                     
__________________________________________________________________________________________________
lambda_546 (Lambda)             (None, 54)           0           gru_2[20][0]                     
__________________________________________________________________________________________________
lambda_548 (Lambda)             (None, 54)           0           gru_2[21][0]                     
__________________________________________________________________________________________________
lambda_549 (Lambda)             (None, 54)           0           gru_2[21][0]                     
__________________________________________________________________________________________________
lambda_550 (Lambda)             (None, 54)           0           gru_2[21][0]                     
__________________________________________________________________________________________________
lambda_551 (Lambda)             (None, 54)           0           gru_2[21][0]                     
__________________________________________________________________________________________________
lambda_552 (Lambda)             (None, 54)           0           gru_2[21][0]                     
__________________________________________________________________________________________________
lambda_553 (Lambda)             (None, 54)           0           gru_2[21][0]                     
__________________________________________________________________________________________________
lambda_554 (Lambda)             (None, 54)           0           gru_2[21][0]                     
__________________________________________________________________________________________________
lambda_555 (Lambda)             (None, 54)           0           gru_2[21][0]                     
__________________________________________________________________________________________________
lambda_556 (Lambda)             (None, 54)           0           gru_2[21][0]                     
__________________________________________________________________________________________________
lambda_557 (Lambda)             (None, 54)           0           gru_2[21][0]                     
__________________________________________________________________________________________________
lambda_558 (Lambda)             (None, 54)           0           gru_2[21][0]                     
__________________________________________________________________________________________________
lambda_559 (Lambda)             (None, 54)           0           gru_2[21][0]                     
__________________________________________________________________________________________________
lambda_560 (Lambda)             (None, 54)           0           gru_2[21][0]                     
__________________________________________________________________________________________________
lambda_561 (Lambda)             (None, 54)           0           gru_2[21][0]                     
__________________________________________________________________________________________________
lambda_562 (Lambda)             (None, 54)           0           gru_2[21][0]                     
__________________________________________________________________________________________________
lambda_563 (Lambda)             (None, 54)           0           gru_2[21][0]                     
__________________________________________________________________________________________________
lambda_564 (Lambda)             (None, 54)           0           gru_2[21][0]                     
__________________________________________________________________________________________________
lambda_565 (Lambda)             (None, 54)           0           gru_2[21][0]                     
__________________________________________________________________________________________________
lambda_566 (Lambda)             (None, 54)           0           gru_2[21][0]                     
__________________________________________________________________________________________________
lambda_567 (Lambda)             (None, 54)           0           gru_2[21][0]                     
__________________________________________________________________________________________________
lambda_568 (Lambda)             (None, 54)           0           gru_2[21][0]                     
__________________________________________________________________________________________________
lambda_569 (Lambda)             (None, 54)           0           gru_2[21][0]                     
__________________________________________________________________________________________________
lambda_570 (Lambda)             (None, 54)           0           gru_2[21][0]                     
__________________________________________________________________________________________________
lambda_571 (Lambda)             (None, 54)           0           gru_2[21][0]                     
__________________________________________________________________________________________________
lambda_572 (Lambda)             (None, 54)           0           gru_2[21][0]                     
__________________________________________________________________________________________________
lambda_574 (Lambda)             (None, 54)           0           gru_2[22][0]                     
__________________________________________________________________________________________________
lambda_575 (Lambda)             (None, 54)           0           gru_2[22][0]                     
__________________________________________________________________________________________________
lambda_576 (Lambda)             (None, 54)           0           gru_2[22][0]                     
__________________________________________________________________________________________________
lambda_577 (Lambda)             (None, 54)           0           gru_2[22][0]                     
__________________________________________________________________________________________________
lambda_578 (Lambda)             (None, 54)           0           gru_2[22][0]                     
__________________________________________________________________________________________________
lambda_579 (Lambda)             (None, 54)           0           gru_2[22][0]                     
__________________________________________________________________________________________________
lambda_580 (Lambda)             (None, 54)           0           gru_2[22][0]                     
__________________________________________________________________________________________________
lambda_581 (Lambda)             (None, 54)           0           gru_2[22][0]                     
__________________________________________________________________________________________________
lambda_582 (Lambda)             (None, 54)           0           gru_2[22][0]                     
__________________________________________________________________________________________________
lambda_583 (Lambda)             (None, 54)           0           gru_2[22][0]                     
__________________________________________________________________________________________________
lambda_584 (Lambda)             (None, 54)           0           gru_2[22][0]                     
__________________________________________________________________________________________________
lambda_585 (Lambda)             (None, 54)           0           gru_2[22][0]                     
__________________________________________________________________________________________________
lambda_586 (Lambda)             (None, 54)           0           gru_2[22][0]                     
__________________________________________________________________________________________________
lambda_587 (Lambda)             (None, 54)           0           gru_2[22][0]                     
__________________________________________________________________________________________________
lambda_588 (Lambda)             (None, 54)           0           gru_2[22][0]                     
__________________________________________________________________________________________________
lambda_589 (Lambda)             (None, 54)           0           gru_2[22][0]                     
__________________________________________________________________________________________________
lambda_590 (Lambda)             (None, 54)           0           gru_2[22][0]                     
__________________________________________________________________________________________________
lambda_591 (Lambda)             (None, 54)           0           gru_2[22][0]                     
__________________________________________________________________________________________________
lambda_592 (Lambda)             (None, 54)           0           gru_2[22][0]                     
__________________________________________________________________________________________________
lambda_593 (Lambda)             (None, 54)           0           gru_2[22][0]                     
__________________________________________________________________________________________________
lambda_594 (Lambda)             (None, 54)           0           gru_2[22][0]                     
__________________________________________________________________________________________________
lambda_595 (Lambda)             (None, 54)           0           gru_2[22][0]                     
__________________________________________________________________________________________________
lambda_596 (Lambda)             (None, 54)           0           gru_2[22][0]                     
__________________________________________________________________________________________________
lambda_597 (Lambda)             (None, 54)           0           gru_2[22][0]                     
__________________________________________________________________________________________________
lambda_598 (Lambda)             (None, 54)           0           gru_2[22][0]                     
__________________________________________________________________________________________________
lambda_600 (Lambda)             (None, 54)           0           gru_2[23][0]                     
__________________________________________________________________________________________________
lambda_601 (Lambda)             (None, 54)           0           gru_2[23][0]                     
__________________________________________________________________________________________________
lambda_602 (Lambda)             (None, 54)           0           gru_2[23][0]                     
__________________________________________________________________________________________________
lambda_603 (Lambda)             (None, 54)           0           gru_2[23][0]                     
__________________________________________________________________________________________________
lambda_604 (Lambda)             (None, 54)           0           gru_2[23][0]                     
__________________________________________________________________________________________________
lambda_605 (Lambda)             (None, 54)           0           gru_2[23][0]                     
__________________________________________________________________________________________________
lambda_606 (Lambda)             (None, 54)           0           gru_2[23][0]                     
__________________________________________________________________________________________________
lambda_607 (Lambda)             (None, 54)           0           gru_2[23][0]                     
__________________________________________________________________________________________________
lambda_608 (Lambda)             (None, 54)           0           gru_2[23][0]                     
__________________________________________________________________________________________________
lambda_609 (Lambda)             (None, 54)           0           gru_2[23][0]                     
__________________________________________________________________________________________________
lambda_610 (Lambda)             (None, 54)           0           gru_2[23][0]                     
__________________________________________________________________________________________________
lambda_611 (Lambda)             (None, 54)           0           gru_2[23][0]                     
__________________________________________________________________________________________________
lambda_612 (Lambda)             (None, 54)           0           gru_2[23][0]                     
__________________________________________________________________________________________________
lambda_613 (Lambda)             (None, 54)           0           gru_2[23][0]                     
__________________________________________________________________________________________________
lambda_614 (Lambda)             (None, 54)           0           gru_2[23][0]                     
__________________________________________________________________________________________________
lambda_615 (Lambda)             (None, 54)           0           gru_2[23][0]                     
__________________________________________________________________________________________________
lambda_616 (Lambda)             (None, 54)           0           gru_2[23][0]                     
__________________________________________________________________________________________________
lambda_617 (Lambda)             (None, 54)           0           gru_2[23][0]                     
__________________________________________________________________________________________________
lambda_618 (Lambda)             (None, 54)           0           gru_2[23][0]                     
__________________________________________________________________________________________________
lambda_619 (Lambda)             (None, 54)           0           gru_2[23][0]                     
__________________________________________________________________________________________________
lambda_620 (Lambda)             (None, 54)           0           gru_2[23][0]                     
__________________________________________________________________________________________________
lambda_621 (Lambda)             (None, 54)           0           gru_2[23][0]                     
__________________________________________________________________________________________________
lambda_622 (Lambda)             (None, 54)           0           gru_2[23][0]                     
__________________________________________________________________________________________________
lambda_623 (Lambda)             (None, 54)           0           gru_2[23][0]                     
__________________________________________________________________________________________________
lambda_624 (Lambda)             (None, 54)           0           gru_2[23][0]                     
__________________________________________________________________________________________________
lambda_626 (Lambda)             (None, 54)           0           gru_2[24][0]                     
__________________________________________________________________________________________________
lambda_627 (Lambda)             (None, 54)           0           gru_2[24][0]                     
__________________________________________________________________________________________________
lambda_628 (Lambda)             (None, 54)           0           gru_2[24][0]                     
__________________________________________________________________________________________________
lambda_629 (Lambda)             (None, 54)           0           gru_2[24][0]                     
__________________________________________________________________________________________________
lambda_630 (Lambda)             (None, 54)           0           gru_2[24][0]                     
__________________________________________________________________________________________________
lambda_631 (Lambda)             (None, 54)           0           gru_2[24][0]                     
__________________________________________________________________________________________________
lambda_632 (Lambda)             (None, 54)           0           gru_2[24][0]                     
__________________________________________________________________________________________________
lambda_633 (Lambda)             (None, 54)           0           gru_2[24][0]                     
__________________________________________________________________________________________________
lambda_634 (Lambda)             (None, 54)           0           gru_2[24][0]                     
__________________________________________________________________________________________________
lambda_635 (Lambda)             (None, 54)           0           gru_2[24][0]                     
__________________________________________________________________________________________________
lambda_636 (Lambda)             (None, 54)           0           gru_2[24][0]                     
__________________________________________________________________________________________________
lambda_637 (Lambda)             (None, 54)           0           gru_2[24][0]                     
__________________________________________________________________________________________________
lambda_638 (Lambda)             (None, 54)           0           gru_2[24][0]                     
__________________________________________________________________________________________________
lambda_639 (Lambda)             (None, 54)           0           gru_2[24][0]                     
__________________________________________________________________________________________________
lambda_640 (Lambda)             (None, 54)           0           gru_2[24][0]                     
__________________________________________________________________________________________________
lambda_641 (Lambda)             (None, 54)           0           gru_2[24][0]                     
__________________________________________________________________________________________________
lambda_642 (Lambda)             (None, 54)           0           gru_2[24][0]                     
__________________________________________________________________________________________________
lambda_643 (Lambda)             (None, 54)           0           gru_2[24][0]                     
__________________________________________________________________________________________________
lambda_644 (Lambda)             (None, 54)           0           gru_2[24][0]                     
__________________________________________________________________________________________________
lambda_645 (Lambda)             (None, 54)           0           gru_2[24][0]                     
__________________________________________________________________________________________________
lambda_646 (Lambda)             (None, 54)           0           gru_2[24][0]                     
__________________________________________________________________________________________________
lambda_647 (Lambda)             (None, 54)           0           gru_2[24][0]                     
__________________________________________________________________________________________________
lambda_648 (Lambda)             (None, 54)           0           gru_2[24][0]                     
__________________________________________________________________________________________________
lambda_649 (Lambda)             (None, 54)           0           gru_2[24][0]                     
__________________________________________________________________________________________________
lambda_650 (Lambda)             (None, 54)           0           gru_2[24][0]                     
__________________________________________________________________________________________________
dense_1 (Dense)                 (None, 54)           2970        lambda_2[0][0]                   
                                                                 lambda_3[0][0]                   
                                                                 lambda_4[0][0]                   
                                                                 lambda_5[0][0]                   
                                                                 lambda_6[0][0]                   
…
                                                                 reshape_1[24][0]                 
==================================================================================================
Total params: 3,495,426
Trainable params: 3,495,426
Non-trainable params: 0
__________________________________________________________________________________________________
_________________________________________________________________
Layer (type)                 Output Shape              Param #   
=================================================================
input_1 (InputLayer)         (None, 25, 54)            0         
_________________________________________________________________
gru_1 (GRU)                  (None, 25, 1024)          3314688   
=================================================================
Total params: 3,314,688
Trainable params: 3,314,688
Non-trainable params: 0
_________________________________________________________________
__________________________________________________________________________________________________
Layer (type)                    Output Shape         Param #     Connected to                     
==================================================================================================
input_2 (InputLayer)            (None, 1024)         0                                            
__________________________________________________________________________________________________
repeat_vector_1 (RepeatVector)  (None, 25, 1024)     0           input_2[0][0]                    
__________________________________________________________________________________________________
gru_2 (GRU)                     (None, 25, 54)       174798      repeat_vector_1[25][0]           
__________________________________________________________________________________________________
lambda_651 (Lambda)             (None, 54)           0           gru_2[25][0]                     
__________________________________________________________________________________________________
lambda_652 (Lambda)             (None, 54)           0           gru_2[25][0]                     
__________________________________________________________________________________________________
lambda_653 (Lambda)             (None, 54)           0           gru_2[25][0]                     
__________________________________________________________________________________________________
lambda_654 (Lambda)             (None, 54)           0           gru_2[25][0]                     
__________________________________________________________________________________________________
lambda_655 (Lambda)             (None, 54)           0           gru_2[25][0]                     
__________________________________________________________________________________________________
lambda_656 (Lambda)             (None, 54)           0           gru_2[25][0]                     
__________________________________________________________________________________________________
lambda_657 (Lambda)             (None, 54)           0           gru_2[25][0]                     
__________________________________________________________________________________________________
lambda_658 (Lambda)             (None, 54)           0           gru_2[25][0]                     
__________________________________________________________________________________________________
lambda_659 (Lambda)             (None, 54)           0           gru_2[25][0]                     
__________________________________________________________________________________________________
lambda_660 (Lambda)             (None, 54)           0           gru_2[25][0]                     
__________________________________________________________________________________________________
lambda_661 (Lambda)             (None, 54)           0           gru_2[25][0]                     
__________________________________________________________________________________________________
lambda_662 (Lambda)             (None, 54)           0           gru_2[25][0]                     
__________________________________________________________________________________________________
lambda_663 (Lambda)             (None, 54)           0           gru_2[25][0]                     
__________________________________________________________________________________________________
lambda_664 (Lambda)             (None, 54)           0           gru_2[25][0]                     
__________________________________________________________________________________________________
lambda_665 (Lambda)             (None, 54)           0           gru_2[25][0]                     
__________________________________________________________________________________________________
lambda_666 (Lambda)             (None, 54)           0           gru_2[25][0]                     
__________________________________________________________________________________________________
lambda_667 (Lambda)             (None, 54)           0           gru_2[25][0]                     
__________________________________________________________________________________________________
lambda_668 (Lambda)             (None, 54)           0           gru_2[25][0]                     
__________________________________________________________________________________________________
lambda_669 (Lambda)             (None, 54)           0           gru_2[25][0]                     
__________________________________________________________________________________________________
lambda_670 (Lambda)             (None, 54)           0           gru_2[25][0]                     
__________________________________________________________________________________________________
lambda_671 (Lambda)             (None, 54)           0           gru_2[25][0]                     
__________________________________________________________________________________________________
lambda_672 (Lambda)             (None, 54)           0           gru_2[25][0]                     
__________________________________________________________________________________________________
lambda_673 (Lambda)             (None, 54)           0           gru_2[25][0]                     
__________________________________________________________________________________________________
lambda_674 (Lambda)             (None, 54)           0           gru_2[25][0]                     
__________________________________________________________________________________________________
lambda_675 (Lambda)             (None, 54)           0           gru_2[25][0]                     
__________________________________________________________________________________________________
dense_1 (Dense)                 (None, 54)           2970        lambda_651[0][0]                 
                                                                 lambda_652[0][0]                 
                                                                 lambda_653[0][0]                 
                                                                 lambda_654[0][0]                 
                                                                 lambda_655[0][0]                 
…
