[14, 24]
__________________________________________________________________________________________________
Layer (type)                    Output Shape         Param #     Connected to                     
==================================================================================================
input_1 (InputLayer)            (None, 25, 54)       0                                            
__________________________________________________________________________________________________
gru_1 (GRU)                     (None, 25, 1024)     3314688     input_1[0][0]                    
__________________________________________________________________________________________________
lambda_1 (Lambda)               (None, 1024)         0           gru_1[0][0]                      
__________________________________________________________________________________________________
lambda_27 (Lambda)              (None, 1024)         0           gru_1[0][0]                      
__________________________________________________________________________________________________
repeat_vector_1 (RepeatVector)  (None, 25, 1024)     0           lambda_1[0][0]                   
                                                                 lambda_27[0][0]                  
__________________________________________________________________________________________________
gru_2 (GRU)                     (None, 25, 54)       174798      repeat_vector_1[0][0]            
                                                                 repeat_vector_1[1][0]            
__________________________________________________________________________________________________
lambda_2 (Lambda)               (None, 54)           0           gru_2[0][0]                      
__________________________________________________________________________________________________
lambda_3 (Lambda)               (None, 54)           0           gru_2[0][0]                      
__________________________________________________________________________________________________
lambda_4 (Lambda)               (None, 54)           0           gru_2[0][0]                      
__________________________________________________________________________________________________
lambda_5 (Lambda)               (None, 54)           0           gru_2[0][0]                      
__________________________________________________________________________________________________
lambda_6 (Lambda)               (None, 54)           0           gru_2[0][0]                      
__________________________________________________________________________________________________
lambda_7 (Lambda)               (None, 54)           0           gru_2[0][0]                      
__________________________________________________________________________________________________
lambda_8 (Lambda)               (None, 54)           0           gru_2[0][0]                      
__________________________________________________________________________________________________
lambda_9 (Lambda)               (None, 54)           0           gru_2[0][0]                      
__________________________________________________________________________________________________
lambda_10 (Lambda)              (None, 54)           0           gru_2[0][0]                      
__________________________________________________________________________________________________
lambda_11 (Lambda)              (None, 54)           0           gru_2[0][0]                      
__________________________________________________________________________________________________
lambda_12 (Lambda)              (None, 54)           0           gru_2[0][0]                      
__________________________________________________________________________________________________
lambda_13 (Lambda)              (None, 54)           0           gru_2[0][0]                      
__________________________________________________________________________________________________
lambda_14 (Lambda)              (None, 54)           0           gru_2[0][0]                      
__________________________________________________________________________________________________
lambda_15 (Lambda)              (None, 54)           0           gru_2[0][0]                      
__________________________________________________________________________________________________
lambda_16 (Lambda)              (None, 54)           0           gru_2[0][0]                      
__________________________________________________________________________________________________
lambda_17 (Lambda)              (None, 54)           0           gru_2[0][0]                      
__________________________________________________________________________________________________
lambda_18 (Lambda)              (None, 54)           0           gru_2[0][0]                      
__________________________________________________________________________________________________
lambda_19 (Lambda)              (None, 54)           0           gru_2[0][0]                      
__________________________________________________________________________________________________
lambda_20 (Lambda)              (None, 54)           0           gru_2[0][0]                      
__________________________________________________________________________________________________
lambda_21 (Lambda)              (None, 54)           0           gru_2[0][0]                      
__________________________________________________________________________________________________
lambda_22 (Lambda)              (None, 54)           0           gru_2[0][0]                      
__________________________________________________________________________________________________
lambda_23 (Lambda)              (None, 54)           0           gru_2[0][0]                      
__________________________________________________________________________________________________
lambda_24 (Lambda)              (None, 54)           0           gru_2[0][0]                      
__________________________________________________________________________________________________
lambda_25 (Lambda)              (None, 54)           0           gru_2[0][0]                      
__________________________________________________________________________________________________
lambda_26 (Lambda)              (None, 54)           0           gru_2[0][0]                      
__________________________________________________________________________________________________
lambda_28 (Lambda)              (None, 54)           0           gru_2[1][0]                      
__________________________________________________________________________________________________
lambda_29 (Lambda)              (None, 54)           0           gru_2[1][0]                      
__________________________________________________________________________________________________
lambda_30 (Lambda)              (None, 54)           0           gru_2[1][0]                      
__________________________________________________________________________________________________
lambda_31 (Lambda)              (None, 54)           0           gru_2[1][0]                      
__________________________________________________________________________________________________
lambda_32 (Lambda)              (None, 54)           0           gru_2[1][0]                      
__________________________________________________________________________________________________
lambda_33 (Lambda)              (None, 54)           0           gru_2[1][0]                      
__________________________________________________________________________________________________
lambda_34 (Lambda)              (None, 54)           0           gru_2[1][0]                      
__________________________________________________________________________________________________
lambda_35 (Lambda)              (None, 54)           0           gru_2[1][0]                      
__________________________________________________________________________________________________
lambda_36 (Lambda)              (None, 54)           0           gru_2[1][0]                      
__________________________________________________________________________________________________
lambda_37 (Lambda)              (None, 54)           0           gru_2[1][0]                      
__________________________________________________________________________________________________
lambda_38 (Lambda)              (None, 54)           0           gru_2[1][0]                      
__________________________________________________________________________________________________
lambda_39 (Lambda)              (None, 54)           0           gru_2[1][0]                      
__________________________________________________________________________________________________
lambda_40 (Lambda)              (None, 54)           0           gru_2[1][0]                      
__________________________________________________________________________________________________
lambda_41 (Lambda)              (None, 54)           0           gru_2[1][0]                      
__________________________________________________________________________________________________
lambda_42 (Lambda)              (None, 54)           0           gru_2[1][0]                      
__________________________________________________________________________________________________
lambda_43 (Lambda)              (None, 54)           0           gru_2[1][0]                      
__________________________________________________________________________________________________
lambda_44 (Lambda)              (None, 54)           0           gru_2[1][0]                      
__________________________________________________________________________________________________
lambda_45 (Lambda)              (None, 54)           0           gru_2[1][0]                      
__________________________________________________________________________________________________
lambda_46 (Lambda)              (None, 54)           0           gru_2[1][0]                      
__________________________________________________________________________________________________
lambda_47 (Lambda)              (None, 54)           0           gru_2[1][0]                      
__________________________________________________________________________________________________
lambda_48 (Lambda)              (None, 54)           0           gru_2[1][0]                      
__________________________________________________________________________________________________
lambda_49 (Lambda)              (None, 54)           0           gru_2[1][0]                      
__________________________________________________________________________________________________
lambda_50 (Lambda)              (None, 54)           0           gru_2[1][0]                      
__________________________________________________________________________________________________
lambda_51 (Lambda)              (None, 54)           0           gru_2[1][0]                      
__________________________________________________________________________________________________
lambda_52 (Lambda)              (None, 54)           0           gru_2[1][0]                      
__________________________________________________________________________________________________
dense_1 (Dense)                 (None, 54)           2970        lambda_2[0][0]                   
                                                                 lambda_3[0][0]                   
                                                                 lambda_4[0][0]                   
                                                                 lambda_5[0][0]                   
                                                                 lambda_6[0][0]                   
…
                                                                 dense_2[45][0]                   
                                                                 dense_2[46][0]                   
                                                                 dense_2[47][0]                   
                                                                 dense_2[48][0]                   
                                                                 dense_2[49][0]                   
__________________________________________________________________________________________________
reshape_1 (Reshape)             (None, 25, 54)       0           concatenate_1[0][0]              
                                                                 concatenate_2[0][0]              
__________________________________________________________________________________________________
concatenate_3 (Concatenate)     (None, 50, 54)       0           reshape_1[0][0]                  
                                                                 reshape_1[1][0]                  
==================================================================================================
Total params: 3,495,426
Trainable params: 3,495,426
Non-trainable params: 0
__________________________________________________________________________________________________
_________________________________________________________________
Layer (type)                 Output Shape              Param #   
=================================================================
input_1 (InputLayer)         (None, 25, 54)            0         
_________________________________________________________________
gru_1 (GRU)                  (None, 25, 1024)          3314688   
=================================================================
Total params: 3,314,688
Trainable params: 3,314,688
Non-trainable params: 0
_________________________________________________________________
__________________________________________________________________________________________________
Layer (type)                    Output Shape         Param #     Connected to                     
==================================================================================================
input_2 (InputLayer)            (None, 1024)         0                                            
__________________________________________________________________________________________________
repeat_vector_1 (RepeatVector)  (None, 25, 1024)     0           input_2[0][0]                    
__________________________________________________________________________________________________
gru_2 (GRU)                     (None, 25, 54)       174798      repeat_vector_1[2][0]            
__________________________________________________________________________________________________
lambda_53 (Lambda)              (None, 54)           0           gru_2[2][0]                      
__________________________________________________________________________________________________
lambda_54 (Lambda)              (None, 54)           0           gru_2[2][0]                      
__________________________________________________________________________________________________
lambda_55 (Lambda)              (None, 54)           0           gru_2[2][0]                      
__________________________________________________________________________________________________
lambda_56 (Lambda)              (None, 54)           0           gru_2[2][0]                      
__________________________________________________________________________________________________
lambda_57 (Lambda)              (None, 54)           0           gru_2[2][0]                      
__________________________________________________________________________________________________
lambda_58 (Lambda)              (None, 54)           0           gru_2[2][0]                      
__________________________________________________________________________________________________
lambda_59 (Lambda)              (None, 54)           0           gru_2[2][0]                      
__________________________________________________________________________________________________
lambda_60 (Lambda)              (None, 54)           0           gru_2[2][0]                      
__________________________________________________________________________________________________
lambda_61 (Lambda)              (None, 54)           0           gru_2[2][0]                      
__________________________________________________________________________________________________
lambda_62 (Lambda)              (None, 54)           0           gru_2[2][0]                      
__________________________________________________________________________________________________
lambda_63 (Lambda)              (None, 54)           0           gru_2[2][0]                      
__________________________________________________________________________________________________
lambda_64 (Lambda)              (None, 54)           0           gru_2[2][0]                      
__________________________________________________________________________________________________
lambda_65 (Lambda)              (None, 54)           0           gru_2[2][0]                      
__________________________________________________________________________________________________
lambda_66 (Lambda)              (None, 54)           0           gru_2[2][0]                      
__________________________________________________________________________________________________
lambda_67 (Lambda)              (None, 54)           0           gru_2[2][0]                      
__________________________________________________________________________________________________
lambda_68 (Lambda)              (None, 54)           0           gru_2[2][0]                      
__________________________________________________________________________________________________
lambda_69 (Lambda)              (None, 54)           0           gru_2[2][0]                      
__________________________________________________________________________________________________
lambda_70 (Lambda)              (None, 54)           0           gru_2[2][0]                      
__________________________________________________________________________________________________
lambda_71 (Lambda)              (None, 54)           0           gru_2[2][0]                      
__________________________________________________________________________________________________
lambda_72 (Lambda)              (None, 54)           0           gru_2[2][0]                      
__________________________________________________________________________________________________
lambda_73 (Lambda)              (None, 54)           0           gru_2[2][0]                      
__________________________________________________________________________________________________
lambda_74 (Lambda)              (None, 54)           0           gru_2[2][0]                      
__________________________________________________________________________________________________
lambda_75 (Lambda)              (None, 54)           0           gru_2[2][0]                      
__________________________________________________________________________________________________
lambda_76 (Lambda)              (None, 54)           0           gru_2[2][0]                      
__________________________________________________________________________________________________
lambda_77 (Lambda)              (None, 54)           0           gru_2[2][0]                      
__________________________________________________________________________________________________
dense_1 (Dense)                 (None, 54)           2970        lambda_53[0][0]                  
                                                                 lambda_54[0][0]                  
                                                                 lambda_55[0][0]                  
                                                                 lambda_56[0][0]                  
                                                                 lambda_57[0][0]                  
…
